A2/softmax_best_model.pt (torch, 246579 bytes, 1 tensors)

W f8 [3073, 10]
00000000: 3467 c250 c9b9 893f 8679 1479 42b7 83bf
00000010: 96a2 598c 6814 84bf 4094 7086 713f 91bf
00000020: 417e c1cf 21ff aabf 4c74 691d 08f2 8ebf
00000030: cda2 25e0 48a9 983f 779a 0a9e 4092 6bbf
00000040: cfbc 2d09 6d52 b43f 3340 26fe b182 81bf
00000050: 5ade defc 8ea6 82bf 3264 8e2f 6c51 81bf
00000060: a26e b1c3 56df 973f a2c7 4f3b 4ad2 573f
00000070: c86d 1690 6816 5ebf 4819 8530 a37d a5bf
00000080: 1d7f 9d17 6b41 a33f b872 9f2e 1f7a a0bf
00000090: 770d dcea 0921 b03f 52f0 e570 724b a0bf
000000a0: 8b85 a213 0512 97bf 7053 fbfd ce8b 673f
000000b0: 2d5c 20ef 43ae a33f 7c60 08cf b099 673f
000000c0: 6941 f15a 26d8 913f 5547 4e6e e2db a0bf
000000d0: 4e21 21bc c51d 9a3f bc89 8eb5 51e9 96bf
000000e0: 7979 d29d 44e8 a63f 6b86 f426 2baa abbf
000000f0: 8b6e f922 baf5 83bf e834 02a2 bf8b 49bf
00000100: 0004 5639 5064 963f c208 0571 172f 77bf
00000110: bdc3 d93f 8ffe 913f d838 8924 6e3b 6e3f
00000120: 441d bdbf 4f39 683f ec9c 1492 fc75 9abf
00000130: 4de5 e2b4 2949 aa3f 8e28 39ba da5d acbf
00000140: 958c 695b 824e 7a3f ec4b a8de b0c6 8b3f
00000150: 9b1b 8b91 6a14 743f 0233 815c 8db8 8bbf
00000160: a736 3330 31e8 a13f 873f e890 6ac4 8f3f
00000170: 8e82 e2d1 d2ae 8bbf 479c 12eb 374f a0bf
00000180: 8359 9434 1389 a33f 0962 32dc 26f7 abbf
00000190: cc31 9290 56b3 833f 13e1 951f 5cf4 81bf
000001a0: bc95 3528 b72d 8f3f f3c5 449a 0575 8dbf
000001b0: 9099 d8d8 02f1 8a3f 7f6c b1b5 43b0 723f
000001c0: 646d 92a5 fc99 713f 76a0 fe8d 0294 8a3f
000001d0: 8d6e 10fa 8275 9e3f b15b c3ce b401 b1bf
000001e0: 240f d587 01ae 60bf b0d3 5302 697e 78bf
000001f0: cda6 9de8 6e69 973f 967a ebfe 6bc2 65bf
00000200: 251a 0135 143d 763f 896f 31ec 28d3 893f
00000210: 60ce be70 6162 5e3f dfb9 7ad6 dfa5 5dbf
00000220: f042 2fa6 841b 9d3f 9608 9d22 390e aebf
00000230: fe1f 47b6 993a 8cbf fe0c d971 d548 6abf
00000240: 3967 0414 cb14 9b3f b126 6ce3 6297 a03f
00000250: 463e af30 4753 793f dff8 b55a a050 48bf
00000260: 8c75 8e88 d004 713f de4c 596a 3089 a1bf
00000270: 6e5e 468a ebf1 a23f e8ed e39d 10c1 abbf
00000280: df99 9ddb a273 91bf da41 a933 8047 873f
00000290: 00ef b8ea 2c3b 6f3f 09f9 7267 12dd 923f
000002a0: 2196 d1d4 37bd 953f 6581 41ff 9b9d 9dbf
000002b0: 4b46 39af ee0d a93f b4be 7d73 bc11 a8bf
000002c0: f6de 7137 300f 973f a003 7229 1a0d a1bf
000002d0: 1ebf 0a3b 2f67 97bf ab99 0233 4cc9 923f
000002e0: 59b2 c28d a587 29bf dffd fb48 f977 8c3f
000002f0: 5ce8 c058 d78f a23f 8494 9041 4755 55bf
00000300: a07f 10fc 002e 9f3f 785e 6450 2eea a4bf
00000310: 53f9 ac70 7d0f 8a3f 6055 076e 8ecb a7bf
00000320: 8c7b f66f 1fa3 94bf 8c03 093a 5b26 71bf
00000330: e0d5 8989 55f7 48bf a3d6 2718 85bc 873f
00000340: 068f 47c3 afbc a03f 8808 0c1a fcba 973f
00000350: d70d b7b0 93fe 933f 1a67 6721 56fc a4bf
00000360: 900f 623f 6e4c 933f 026e 86dd 1058 a4bf
00000370: 1c16 7797 2b1d 65bf 5b81 4d3e 8293 4b3f
00000380: 3594 ba0f 35a9 733f 93e4 2c98 923a a03f
00000390: c603 bece bb7d 863f 1d39 f0d8 0f2e 903f
000003a0: f515 23bd e54f 7ebf fbce 7e08 310e 97bf
000003b0: 379e d012 36fb 763f 3c25 4b3f 6111 a3bf
000003c0: e3cc 5cd8 14df 84bf 2571 6774 d63d ae3f
000003d0: 3f4a e5b8 c7b3 80bf 1c42 949d cb9b 983f
000003e0: 15aa 05eb d51d 743f 8917 3f8a e910 4ebf
000003f0: a16b 98d6 1386 84bf 2c4a 619e 4c09 97bf
00000400: b489 daf7 04c0 82bf fdc8 5f13 24b8 9bbf
00000410: 4a27 48e6 f028 7fbf 8a30 ed56 f686 a33f
00000420: 7ce0 4f72 a588 823f 1b9e 9deb abc3 8e3f
00000430: ef38 556c 702d 793f 14f9 ec62 a4f6 85bf
00000440: 794d 7c3b 3b68 993f f823 6640 dc5f a9bf
00000450: 12f2 28b3 5c0f 69bf 72dc b3d4 3bc0 96bf
00000460: 4050 7f41 cb91 89bf b123 004b f766 8c3f
00000470: aaaf db98 e937 993f cf8e a5a7 fdee 853f
00000480: fdf9 0393 7fc5 963f 60c8 b201 fae2 8ebf
00000490: 55a8 7fae 4377 733f a1d9 8d30 1429 a8bf
000004a0: f0e8 9d43 64e4 593f 51b0 3402 35b5 68bf
000004b0: b1de 4f04 e550 90bf 4d9f 41fc d3e2 863f
000004c0: b87f a7df 8283 a93f 0bf2 be62 f682 933f
000004d0: 12c8 1d63 e44d 993f e0f7 9d47 692f 9fbf
000004e0: 395e 0316 8098 99bf 3477 ed34 c71a a4bf
000004f0: 2261 7ea1 a691 903f 0cbb aef5 2819 85bf
00000500: ceca dafc 5e51 8fbf 6ff4 d3d8 4607 8a3f
00000510: 3629 ac14 67a2 9f3f f8fa 925d 5793 843f
00000520: b721 2785 26f3 9a3f d52e 60a7 f0e2 a0bf
00000530: ceee 9355 5a22 91bf d937 8417 5f89 a0bf
00000540: 8dfc 0f62 7bba 963f be1f 194d e4e0 73bf
00000550: c543 0b3a c955 81bf db20 b9e6 217f 723f
00000560: d00c a5b2 e752 7e3f b8b5 f636 b406 68bf
00000570: 348b 9dbe 7585 9b3f f7bb 8fe5 5a32 8dbf
00000580: d325 2f7a 2ab0 82bf efbc 8237 b9e7 9bbf
00000590: 6a07 a210 4515 853f 85f4 7822 de7e 8a3f
000005a0: 25be ceef bbd0 91bf cd1c f812 b542 47bf
000005b0: 919f 6530 4fcf 9ebf d688 fb25 4f38 a23f
000005c0: 09b5 8159 0923 a03f 2eb7 772f 2105 94bf
000005d0: 0c7b 3419 e2d5 8f3f fd27 10f4 ef2f 9abf
000005e0: 3913 c251 92e0 4c3f b2b5 99c1 6f09 843f
000005f0: acce 2088 57b6 9cbf fd3a d672 f3ea 803f
00000600: e118 0914 23f4 96bf f0cb 4bec 6129 9c3f
00000610: a9fd c7de c3b1 a33f 1d96 1f3d 330c 70bf
00000620: 6b2c ac1d 22dd 803f b22b 5516 5145 8fbf
00000630: 3d86 4fde 81a5 67bf ea53 0649 f056 84bf
00000640: 3cb4 9f07 ef3b 92bf aa19 2aa3 6ef2 973f
00000650: ec60 5f1e ea1a 70bf e0fa f464 2695 8f3f
00000660: 2c42 3a97 0576 993f d9b7 a77b 5c58 813f
00000670: 0b65 0c42 d6b0 2fbf 4583 bce3 61d0 a3bf
00000680: 09af 02fc 548b 883f e3ca 11e8 2d01 98bf
00000690: 6d1d 334f 377b 96bf 1889 d49b d600 913f
000006a0: 1ab1 161a 3d9b 893f 7579 735d 1e0b 693f
000006b0: 2ba8 10be f5b9 923f 3b92 dcde 35ef 9c3f
000006c0: 45f7 4d39 210a 90bf 7e7e 1654 f375 a1bf
000006d0: e663 b574 5d40 9c3f e0dc b4a0 bab3 a1bf
000006e0: e1e0 8653 c154 90bf 11fc c31c 896f 7b3f
000006f0: 7973 892c 12a6 8d3f 8f11 bda3 d9d2 963f
00000700: 8299 097c 7e66 993f 90e5 9fe2 fc34 913f
00000710: 1449 7fe6 8dd7 96bf 768e 80e2 6484 9cbf
00000720: 3176 0020 d038 943f 60f7 0b67 5cd2 a3bf
00000730: f5c3 aa57 932d 8dbf 7231 e480 8b6d a03f
00000740: 0a62 2bbc 383a 773f 91ea feec 9412 b03f
00000750: d846 7be0 180a 6e3f 15ae 2eed 77c8 733f
00000760: 2d8f b5d0 2ba1 8ebf bdea 4a78 6727 94bf
00000770: 55d4 3ec9 cf57 8f3f 1661 3ac9 2f51 b3bf
00000780: 0710 cd07 149d 93bf 1909 5546 cfa0 963f
00000790: c122 836f 5228 8e3f 3f3c 6de8 72dc ae3f
000007a0: 158f cac7 1c81 88bf cad1 a8e5 9aa6 803f
000007b0: 1a50 d71d 6d46 81bf 7b4c 5c97 bb73 66bf
000007c0: 95b7 6af2 a6d4 913f 1011 e87a 9191 b4bf
000007d0: cfda 85f3 7883 98bf bab0 0651 9627 753f
000007e0: 900a 6edd b3eb 073f 1ff1 67fa 937a ac3f
000007f0: 5cb4 3419 0307 8f3f 617e 54db 91c5 7ebf
0.012561390664177809 -0.009626883812015274 -0.009804550917764925 -0.016843580084373366 -0.05272775326806967 -0.015110076329785248 0.02408326976857005 -0.003365637021789876
0.07938271974647935 -0.008550062721752827 -0.009106747714994135 -0.008456082536030338 0.023312907880934326 0.0014539456290063387 -0.0018363972779756755 -0.0419741627434172
0.03760847724220027 -0.03218171543241993 0.06300413116337276 -0.03182561519767603 -0.022529677699485922 0.002874283105351365 0.038438914242015045 0.0028809026046126545
0.017426108647045 -0.032927585568485775 0.025504197700031477 -0.022374417024943347 0.04474081446209061 -0.05403265810515453 -0.00974603099091744 -0.000779598780370397
0.02186704015685237 -0.005660144394200541 0.017572630188116046 0.003690447924134959 0.002957015762067224 -0.025840708175704316 0.051339438753937296 -0.055403552276929266
0.006422528464642548 0.0135625665616654 0.004902282985034835 -0.013535599122542322 0.03497461045627164 0.015511353060929668 -0.013517043142486498 -0.03185438866176376
0.038155174415964964 -0.0546199935717518 0.009619404112776751 -0.008766860689079203 0.015223914064970916 -0.01438335778275055 0.013155004732720937 0.004562630168119529
0.00429724397795481 0.012977619131405254 0.02974514628668472 -0.06643228576591188 -0.002036097516482276 -0.005979929153217364 0.022863133380645096 -0.0026561841290083195
0.005429343160420906 0.012609786708871489 0.0018545104567068357 -0.001809567062007404 0.02842528595266719 -0.058702264285345127 -0.01378364646451757 -0.003208557972159575
0.026446507546189244 0.03240498567727224 0.006182935797326266 -0.000742033288972068 0.004154982169806042 -0.03424979494288903 0.037001953725106826 -0.054207343362545235
-0.01704267945697235 0.011366845680783767 0.003812396744050761 0.018421447338135475 0.02122962223474734 -0.02892154450853592 0.048934420480361306 -0.04701031598858432
0.022518876442034284 -0.03330308681416416 -0.022854555109630963 0.018346014607823296 -0.00019477744979691755 0.013900706805997252 0.03625367124955467 -0.0013020702228996603
0.030448928246300633 -0.040849158586010625 0.012724857331360672 -0.04647488682864309 -0.0201535141073879 -0.004186970094964059 -0.0007619064009093922 0.011590041923209176
0.032689564311821726 0.023174227800162345 0.01952582136233424 -0.040987674310328084 0.018846247309297903 -0.039734389344825885 -0.0025773860358835454 0.0008415590242343661
0.004800040503742988 0.031696873737424934 0.010982005354664436 0.015800712219111824 -0.007400414864780815 -0.022515073913111455 0.005610667442887122 -0.037241972900640324
-0.010191119053706682 0.05906553431461451 -0.008155403451984287 0.02403181218420701 0.004911265962031415 -0.000917543442931588 -0.01002135752337613 -0.022496411482572906
-0.009155310453313394 -0.02706962936640255 -0.0076074037683698335 0.038139055358073895 0.009049694586778616 0.015021651389999715 0.006146849778202886 -0.010724338788005862
0.024811673646650576 -0.04955948148842276 -0.0030590830367869326 -0.022217688424430233 -0.012485111175841834 0.01386826703675745 0.024627351717682856 0.010709745100661831
0.022237771366230053 -0.015081360985593928 0.004752411252392082 -0.047188406874670415 0.0015803317205312327 -0.003016093761877094 -0.015933588398154345 0.01117482770514724
0.0498314760222906 0.01905426957795168 0.024711197423535287 -0.030454297062071478 -0.02499580511434216 -0.039266801081551256 0.016180614096442565 -0.010301895139347227
-0.015291921702872992 0.012709191791595324 0.03089295447993231 0.010046656172901333 0.02631817043018866 -0.03298141520653323 -0.016732608292825905 -0.03229806100908634
0.022195747242218778 -0.0048531454099886556 -0.008464405139791862 0.004515774180227273 0.007403283185627177 -0.002932884198989707 0.026876296767464683 -0.014256200915012214
-0.009125072339787465 -0.02725114251432797 0.010294475145432098 0.012937293459908137 -0.017397820007032067 -0.0007098564291831089 -0.030087697342792877 0.03558585489897019
0.03151730744944287 -0.01955081798762775 0.015544668573566088 -0.025573491355352463 0.0008812632036244501 0.009783623786655624 -0.028039329227069018 0.008260633413355029
-0.022415683839675963 0.027501611754768562 0.03846561522004361 -0.003917884971064403 0.008234278231176803 -0.01526892995265947 -0.0028865372173505753 -0.009931447247064146
-0.017806753959963326 0.02338574286343379 -0.003931917692135505 0.01542119975658579 0.024864280085752963 0.00846931698194091 -0.0002417813821231979 -0.038699206399775345
0.011984504643201459 -0.023441998757742232 -0.02195440693756494 0.016604760419007908 0.012503125532781701 0.0030570595805407504 0.018287505841876033 0.02825626538028046
-0.01566364204653971 -0.03410301591361263 0.027589283226323057 -0.03457434856175623 -0.015948315356326574 0.006698165507486046 0.014476911529692537 0.022288704508598264
0.024805046387336833 0.016803695041721023 -0.02230664939254108 -0.027848793339343612 0.019747974351153445 -0.03871430166144196 -0.014247084725271345 0.03208576153164956
0.005670758839834375 0.06278353487042866 0.003666924083383854 0.004829853499284127 -0.014955847079086116 -0.019681565014915792 0.01530420620825105 -0.07545756018442193
-0.019153893448006467 0.022097815196738233 0.014725345638355038 0.06027564131965634 -0.01196501240458007 0.00813027394642853 -0.008435108636071265 -0.0027407325641291536
0.017412766023589283 -0.08034619570395685 -0.02393902765603678 0.005164706395970048 4.562513975427563e-05 0.05562269622530124 0.015150093275759051 -0.007512635949097652
