A2/svm_best_model.pt (torch, 246579 bytes, 1 tensors)

W f8 [3073, 10]
000000 cb e3 6a 24 79 5e 80 3f 1e bf 1a 2f 42 e4 56 3f
       0.007992693351626464 0.0013971945121901762
000010 46 22 ed 4e 4c 5f 39 3f 81 79 68 38 f7 fb 85 bf
       0.0003871499347281353 -0.010734492691935273
000020 19 86 7d 77 db 5b 98 bf 89 46 fa 6c f8 d7 8a bf
       -0.02378790776072579 -0.013107243371709447
000030 4d 8f 18 83 08 e7 81 3f b2 3c c8 7a 1c 2c 63 bf
       0.008741442204218375 -0.0023403698198830253
000040 8c e4 48 80 e2 84 9f 3f ad e7 2c 2a cc f4 45 3f
       0.0307803526686468 0.0006700512788946255
000050 3e 49 a6 ce a4 5b 4f bf 2f 27 2d 7d fa ad 71 3f
       -0.0009569697115685905 0.004316309425868955
000060 df 9e e7 0e ef fe 8c 3f 0c ac 8d a2 6b 99 52 3f
       0.014158122675282879 0.0011352110979838707
000070 8c 30 42 97 94 32 81 bf 04 27 32 c3 0b db 9e bf
       -0.008397255769772259 -0.030132468975842222
000080 8c 21 4a bc d8 ba 8b 3f fc 5a f2 45 05 19 87 bf
       0.01353997540105991 -0.011278191754440219
000090 c4 0f 32 64 62 27 99 3f 90 ad b8 2c df 77 7c bf
       0.02456430183930515 -0.0069502561341708985
0000a0 f3 17 c5 9e 36 06 82 bf e0 af 83 21 5c 3e 72 3f
       -0.008800913543961264 0.0044540022720233885
0000b0 12 eb c3 e1 24 99 97 3f 85 cb 4d f5 f1 75 6a 3f
       0.02304513576471396 0.0032300687548114126
0000c0 a8 77 b5 4b b5 82 01 bf 8d e0 7a 92 a0 90 98 bf
       -3.339877863582581e-05 -0.02398920911829854
0000d0 81 ae 3f 74 6d 8f 8b 3f 55 87 b1 0e 77 a9 86 bf
       0.013457160101061351 -0.011065416465672643
0000e0 d6 51 98 13 cf 74 91 3f 44 96 41 ba 8d c2 91 bf
       0.017047153063758667 -0.017343725674797264
0000f0 dd 6e 2e 8a 99 89 75 bf a8 d8 32 ff 26 92 73 3f
       -0.005258178486567036 0.004778053599855316
000100 ee 8d 4c aa 55 4f 91 3f 31 00 29 66 d3 38 23 bf
       0.016904200095394666 -0.00014665203623742817
000110 f6 b2 db 24 4f 8d 60 3f e8 c8 65 fe b7 2a 82 bf
       0.002020506456452127 -0.008870542002771889
000120 45 0c 9e 9d 24 df 68 3f 0c a0 29 f8 ec 8f 8b bf
       0.003036090388322007 -0.01345811016399525
000130 c0 21 72 3c 7c d0 94 3f 1f a1 65 14 a1 cc 93 bf
       0.020326558293648267 -0.019335286016400773
000140 86 5f ac ad 0c 25 65 3f 05 ae 92 7b 71 72 81 3f
       0.002581143152735113 0.008519064506194782
000150 b3 af 0e 2b aa 7e 81 3f a2 9f 01 73 91 5d 66 bf
       0.008542375029570204 -0.0027301636510407993
000160 fa 94 e7 07 4a 86 7b 3f ac 5a 46 5a bd 17 78 bf
       0.0067198650199078395 -0.005882014902815296
000170 82 e0 fd 45 5b 98 69 bf 33 8c e9 9d 97 3c 90 bf
       -0.0031244070705121483 -0.015856141102983123
000180 20 00 54 55 38 bd 93 3f 40 89 8a 90 54 7a 92 bf
       0.019276504714980658 -0.018044778177349174
000190 8e 09 4c 59 fd a9 7a 3f c7 77 40 1b 8d f5 62 bf
       0.006509771007360844 -0.00231435356000895
0001a0 be 7c 80 e7 4c a1 86 3f 9e 02 40 92 2a f7 6b bf
       0.011049843611600326 -0.003413756510781531
0001b0 e5 b3 f7 c3 de 9f 52 3f 6e 7d 93 38 e2 3a 7d bf
       0.0011367488331146477 -0.007136233974250101
0001c0 68 d7 80 bc 1b b8 6f 3f 9d 04 5e b2 92 a6 61 bf
       0.0038719693875703294 -0.0021546235247461147
0001d0 2d ad ad 9e a4 fe 92 3f 51 aa 99 5d 0e ba 9a bf
       0.018549511132204422 -0.026100372755914873
0001e0 d5 33 18 9b 30 f6 45 3f 41 d9 04 d2 20 81 54 3f
       0.0006702172597116094 0.0012514896880709422
0001f0 c5 93 43 52 ff 1a 8b 3f 14 ff f4 1c 97 a4 6e 3f
       0.013235087106702079 0.003740592139052876
000200 6d b8 31 be eb 73 36 3f f9 54 f7 94 b0 55 6b bf
       0.0003426027817060643 -0.0033367585053648533
000210 2e 73 9b cf 39 f3 37 3f a3 13 b4 ee 51 34 79 bf
       0.0003654495372822805 -0.0061534119115593
000220 68 4c 16 1a 03 6b 90 3f 3c e1 76 60 2c c7 9a bf
       0.016033218829374724 -0.026150411021917494
000230 0f ed 65 ce 61 74 78 bf 72 39 32 3f 78 09 67 3f
       -0.005970365577350436 0.0028121326991545287
000240 6b bd 88 c7 5d 5a 8d 3f 65 9d 1a 77 59 04 94 3f
       0.014332516338156428 0.01954784192517191
000250 0a 79 dc 24 4a b6 46 3f db 03 1e 3d 0b ec 7d bf
       0.000693117335433675 -0.007305187131238146
000260 0c a1 1f d6 1c a5 60 3f f5 31 90 a0 24 23 94 bf
       0.0020318568431215763 -0.01966531019211178
000270 85 0c 26 13 cc 7a 92 3f 19 1e bb 37 9a 1c 99 bf
       0.01804655901788667 -0.024523172046228312
000280 2c 0b 5e c0 37 6e 74 bf b7 05 5c c0 4e 23 81 3f
       -0.004987924365084589 0.008368125195832172
000290 c0 12 79 49 85 63 82 3f fc 00 a6 a4 f2 d3 8b 3f
       0.008978883080211886 0.01358785214392854
0002a0 bd c2 2d 0c 7a b4 73 3f d5 02 f4 7e 7a 0c 8d bf
       0.0048107879145937145 -0.014183957099250058
0002b0 c3 34 d9 6a 5e 5d 94 3f b6 47 fc 7b 95 66 9c bf
       0.019887423774254353 -0.027735076611015784
0002c0 e2 14 94 88 0d 97 88 3f 4d 63 39 bc 80 39 95 bf
       0.012006860476058315 -0.020727168548862186
0002d0 b5 9f 38 33 d7 89 7b bf f2 05 f5 7c d0 0d 84 3f
       -0.006723251939128196 0.009791973889721615
0002e0 f0 e9 90 40 34 dc 6d 3f 45 9a 34 d4 fe 2a 88 3f
       0.0036450405646324333 0.011800757266042025
0002f0 a7 eb 35 ff 75 4a 87 3f d6 3c 74 d3 f5 ed 62 bf
       0.011372491694364785 -0.0023107339180864312
000300 bb f0 69 e6 2d 4b 91 3f 7e 91 ca d2 1c 66 98 bf
       0.016888348759025656 -0.023827028623274675
000310 79 1b 28 9b 08 21 81 3f 79 68 4e c1 dc b2 9d bf
       0.008363787875180983 -0.02900261812065039
000320 03 5f 53 36 9b 4a 7b bf 89 a3 2c 2d ca 1d 6b 3f
       -0.006662946984952847 0.003310103298094839
000330 70 00 34 92 3d 50 3b 3f 43 33 17 a9 3e 02 8a 3f
       0.0004167700119097678 0.012699594054447544
000340 10 6d 2b c4 eb 06 86 3f 42 e5 cf b7 cd 8d 87 3f
       0.010755388187524889 0.011500937625884892
000350 5d 19 bc c3 3d 0d 87 3f a8 df 42 17 3d e6 98 bf
       0.011255724464274303 -0.024315790695908085
000360 01 02 9c 70 c2 0c 81 3f 88 09 8d 2c 34 f0 9b bf
       0.008325118123594601 -0.027283492297337314
000370 bd 73 96 df 5c 84 10 bf 6b 83 49 f2 11 dd 67 3f
       -6.300751547034986e-05 0.0029130316273015453
000380 dc 1b f2 33 75 92 63 3f e8 80 7f 1a 37 ac 97 3f
       0.0023891724700351013 0.023117886535943294
000390 c7 3d c8 5a 84 0b 62 3f 11 de 2e 63 00 69 81 3f
       0.0022027573634273187 0.00850105574305274
0003a0 3c 6c 05 dc 1d 53 4d bf 7e 73 09 03 44 cf 90 bf
       -0.0008949180410512468 -0.01641565578971748
0003b0 0a 55 e7 a3 9d 93 6e 3f a0 06 56 d7 ed 18 9a bf
       0.003732498065100236 -0.02548572184378506
0003c0 03 1b 90 ed 9b 7f 71 bf 52 d4 17 05 48 da 9a 3f
       -0.004272088140175215 0.026223302183968684
0003d0 1e e4 ec ee 8a ec 71 bf d6 cb 80 05 e2 45 95 3f
       -0.004375975330554586 0.020774394594081112
0003e0 42 15 2d 26 99 a0 68 bf 35 3f 45 a2 2f 39 60 bf
       -0.0030062667077880587 -0.001980393443012841
0003f0 68 72 f4 7e b4 4b 4c bf 8e 85 73 3a 81 42 8f bf
       -0.0008635169341775885 -0.015263566585818091
000400 77 7c 10 fc 9d 08 2e 3f 13 40 d7 83 e2 e1 91 bf
       0.00022913864634774617 -0.017463244721341264
000410 3c 42 c2 81 25 df 62 bf 32 9c 8c a4 c3 41 98 3f
       -0.0023036701732695158 0.02368837062672586
000420 24 6f 8a 3f e9 48 55 3f ed fa a1 83 ed fe 8b 3f
       0.0012991216482651302 0.01366982992135265
000430 00 99 5f 55 a4 17 2c bf 56 02 12 19 36 72 84 bf
       -0.00021432763122603699 -0.00998346580513602
000440 95 35 c2 17 ed 7a 8a 3f 68 df b8 f7 b9 60 9b bf
       0.012929775512271738 -0.02673616957164829
000450 1a 2c 08 be 96 87 6f 3f 9d 3e 91 da 0c 96 90 bf
       0.003848833483294023 -0.01619739612607295
000460 64 42 0e 9c ba 7e 74 bf 31 fe e9 63 b1 99 90 3f
       -0.005003670638772027 0.0162112920029342
000470 0d 29 64 95 5b cf 82 3f 42 7d 78 45 fb ce 8a 3f
       0.00918456601768416 0.01309009843595155
000480 e6 d5 17 11 c2 37 85 3f da 65 d1 87 d5 42 8a bf
       0.010360256334915396 -0.012822788436255662
000490 66 b2 50 55 f9 91 52 3f a8 f5 d1 3e 44 84 9b bf
       0.001133435716165776 -0.026871744474637943
0004a0 5e 79 fc 8b ff 33 71 3f 95 cf 09 51 80 68 83 bf
       0.004199980001230534 -0.00947666404065454
0004b0 0a 9a 0a 2f 62 b9 7e bf 5c 6a 08 68 16 8c 85 3f
       -0.007501014261527059 0.010521101999121978
0004c0 77 3e e3 d5 a6 90 95 3f 7c e1 22 c1 9f 7a 93 3f
       0.021059614948909258 0.019022461093045603
0004d0 36 3e a2 f0 2e 16 8e 3f db 03 8b 83 bc 75 90 bf
       0.014690748899993538 -0.016074128655194513
0004e0 e9 3f 7b 3a f2 6c 89 bf 0b b5 7f d3 16 4a 9a bf
       -0.012414829644882235 -0.025673252734056223
0004f0 a9 9a 53 a4 3c ea 7f 3f d6 7e 7d 1a a7 64 87 bf
       0.007791745073723413 -0.01142244863120771
000500 94 f3 61 07 2a a0 84 bf 81 4d da e8 94 56 89 3f
       -0.010071113920497678 0.012372172695257035
000510 b4 d0 41 b3 33 ba 85 3f 18 61 a1 a2 58 4d 8a 3f
       0.010609058292381547 0.012842838728986325
000520 b6 ad f9 bd d7 e6 8a 3f 38 18 fe 4e 61 39 8c bf
       0.013135610089384336 -0.013781318877374202
000530 c5 60 67 eb 2b 8d 75 bf 98 cb 42 1e 77 90 97 bf
       -0.005261584816672553 -0.023012028905849385
000540 90 7a 59 03 b8 51 87 3f 49 f2 ae 16 cc d2 80 bf
       0.011386334993571695 -0.008214563791505773
000550 39 01 d3 dc 52 46 83 bf 0c 76 f8 19 06 ba 78 3f
       -0.009411475528736989 0.0060367811525146135
000560 48 fa c0 2d 81 8f 58 3f b4 61 be b3 a4 c2 65 3f
       0.0014990579138750727 0.002656289752803265
000570 87 06 c1 86 e2 af 8a 3f 56 03 ff aa ef af 75 bf
       0.013030786263814832 -0.0052947389630738275
000580 01 ee 6f d4 5a c2 62 3f 55 2f ee 36 4e 40 92 bf
       0.0022899412174390847 -0.017823431112943783
000590 55 0a 83 57 36 17 7b 3f 78 ce 39 97 be 3c 3a 3f
       0.006613933823418868 0.00040034916967288765
0005a0 eb 4a b7 cb 73 c9 88 bf 40 9c 08 6d 48 26 4f 3f
       -0.012102989820879503 0.0009506086008216411
0005b0 85 d1 56 00 36 b9 89 bf 3e 8c 3a 8a 9e 67 96 3f
       -0.01256029308829266 0.021879651247797442
0005c0 fa 9c d1 d6 d7 83 88 3f d5 70 c4 d6 02 61 65 bf
       0.011970220797776755 -0.002609735054774113
0005d0 1c 21 9f 53 13 0e 89 3f 2a db f4 55 bb e5 8e bf
       0.012233878125599555 -0.015086616097148193
0005e0 f6 74 39 c2 e2 53 37 bf 15 43 fd 53 a6 b7 71 bf
       -0.0003559521303254232 -0.0043255326452971326
0005f0 71 68 7c 67 1f d1 8c bf a9 0f 83 83 f6 71 7a 3f
       -0.014070744844094403 0.006456339782918188
000600 c6 5e 22 8d cd 34 88 bf e7 11 44 17 1b 35 95 3f
       -0.011819463605476154 0.02071039514068387
000610 94 99 ea ad a4 13 8f 3f f0 9c f1 a9 14 81 35 3f
       0.015174185330874924 0.000328128380664385
000620 1a 7b 10 fc e3 68 7a 3f f8 83 96 e0 11 48 83 bf
       0.006447687687823467 -0.009414806047802302
000630 1f 0e 13 02 fb f7 61 bf 3f ae 79 27 24 ca 87 bf
       -0.0021934416296021243 -0.01161602254361249
000640 43 5b e9 12 f6 d5 80 bf d8 fb 76 8b be 09 87 3f
       -0.008220598652014416 0.01124905455696805
000650 43 19 73 0f 5e e7 76 bf 76 4a 7d f4 3b d9 88 3f
       -0.00559174291919923 0.012133091353154084
000660 07 0e 36 16 f2 89 7f 3f c3 05 b7 83 08 f6 75 3f
       0.007699914599814678 0.005361588725862845
000670 da f0 54 da 01 fc 6b 3f 09 11 a0 ee b6 33 91 bf
       0.00341606485258526 -0.01679883796170237
000680 f8 d0 e6 94 ae 68 7b 3f 5d 99 f9 be c1 51 90 bf
       0.006691629371222023 -0.01593687751883387
000690 65 8c 2d 1d 51 79 8d bf 88 51 a0 45 e9 75 88 3f
       -0.014391549780788002 0.011943647801708548
0006a0 09 42 be 57 0a 3b 57 3f 32 ad d0 1c d1 11 83 3f
       0.0014178849223506226 0.009311326686733599
0006b0 58 dd b1 c0 a2 44 6c 3f 36 a5 4b 71 0c 8e 8d 3f
       0.0034506968273110665 0.014431092460159261
0006c0 a0 05 ad c6 46 3f 73 bf 40 9d 5c 1f 9b 8a 8f bf
       -0.004699017018368862 -0.015401088614068414
0006d0 51 db f3 79 1e bd 8f 3f 69 82 25 5d 47 13 96 bf
       0.015497434708306253 -0.021557917652332757
0006e0 e6 08 0b 4b 4b 99 8c bf 51 a7 13 50 70 d6 83 3f
       -0.013964260318406873 0.00968635315298952
0006f0 fa cc c8 2b 96 20 70 3f dd 52 9e e2 87 72 89 3f
       0.003937327008816322 0.012425481417986212
000700 d5 78 0b 18 c5 0b 73 3f 2e e6 de 15 e1 b8 82 3f
       0.004649896524567339 0.009141691665592946
000710 12 7f 95 eb 9f 05 78 bf d8 09 b8 d9 1b 51 86 bf
       -0.00586473912093745 -0.010896890241387888
000720 20 cc f4 c3 36 ef 89 3f f4 f1 19 86 64 4c 96 bf
       0.012663295607671599 -0.021775789914032687
000730 f1 2e 94 09 a1 0d 86 bf 5f d5 07 7e fb 36 86 3f
       -0.01076818285448364 0.010847058089874904
000740 fe 7b 09 23 a9 95 58 3f 89 84 a0 3a cc 04 9f 3f
       0.0015005256392652817 0.03029173953848788
000750 9d 3b 0b c2 d2 de 59 bf ea 49 6a 7a 38 25 6b 3f
       -0.0015790041144787333 0.003313646611169609
000760 30 4e 68 a0 98 b6 7f bf db a6 3b 31 eb 23 75 bf
       -0.007742496678946817 -0.0051612078857290146
000770 68 2a 69 89 e6 d3 87 3f de d0 03 44 91 8e a0 bf
       0.011634636944241453 -0.032337703278160865
000780 1e cc bc b2 0e f6 83 bf ac b0 08 02 3f a1 74 3f
       -0.009746661023745825 0.005036588787828016
000790 76 2c 63 96 86 54 78 3f e5 7e 6d 9e 43 ce a0 3f
       0.005939985019902774 0.032823670472451195
0007a0 25 fe 9d dd 76 7b 80 bf b3 ce 49 71 2c c0 63 3f
       -0.008047989500254602 0.0024109714525425096
0007b0 9d f0 00 d6 5f 8d 76 bf 80 7d 78 38 6e c8 03 3f
       -0.005505918845354921 3.773294798414383e-05
0007c0 50 52 63 9b a4 a8 89 3f 1a 45 26 b2 ef 29 a2 bf
       0.012528692237915667 -0.03547619867016234
0007d0 53 54 7b 03 6d 9d 89 bf 5a 0d 4e 54 a5 cb 62 3f
       -0.012507297199969047 0.0022943715179636727
0007e0 bc 79 ae 45 7a 5f 1f bf 3f a3 23 03 3a 04 a0 3f
       -0.00011967834272617097 0.03128224647827559
0007f0 36 e0 30 16 ef b2 1f bf 1c d6 1d b5 da e5 70 bf
       -0.00012092193860346951 -0.004125456167334753
